…
'True', 'target_kl': 'None', 'lr_schedule': '<function get_schedule_fn.<locals>.<lambda> at 0x30a477ca0>', 'rollout_buffer': '<stable_baselines3.common.buffers.RolloutBuffer object at 0x30a484280>', 'policy': 'ActorCriticPolicy(\n  (features_extractor): FlattenExtractor(\n    (flatten): Flatten(start_dim=1, end_dim=-1)\n  )\n  (pi_features_extractor): FlattenExtractor(\n    (flatten): Flatten(start_dim=1, end_dim=-1)\n  )\n  (vf_features_extractor): FlattenExtractor(\n    (flatten): Flatten(start_dim=1, end_dim=-1)\n  )\n  (mlp_extractor): MlpExtractor(\n    (policy_net): Sequential(\n      (0): Linear(in_features=36, out_features=64, bias=True)\n      (1): Tanh()\n      (2): Linear(in_features=64, out_features=64, bias=True)\n      (3): Tanh()\n    )\n    (value_net): Sequential(\n      (0): Linear(in_features=36, out_features=64, bias=True)\n      (1): Tanh()\n      (2): Linear(in_features=64, out_features=64, bias=True)\n      (3): Tanh()\n    )\n  )\n  (action_net): Linear(in_features=64, out_features=1331, bias=True)\n  (value_net): Linear(in_features=64, out_features=1, bias=True)\n)', '_logger': '<stable_baselines3.common.logger.Logger object at 0x30a484dc0>'}
2024-11-27 19:27:05,569 INFO    MainThread:82238 [wandb_setup.py:_flush():79] Current SDK version is 0.18.7
2024-11-27 19:27:05,570 INFO    MainThread:82238 [wandb_setup.py:_flush():79] Configure stats pid to 82238
2024-11-27 19:27:05,570 INFO    MainThread:82238 [wandb_setup.py:_flush():79] Loading settings from /Users/shehvincent/.config/wandb/settings
…
'True', 'target_kl': 'None', 'lr_schedule': '<function get_schedule_fn.<locals>.<lambda> at 0x3104b5700>', 'rollout_buffer': '<stable_baselines3.common.buffers.RolloutBuffer object at 0x30d6fb730>', 'policy': 'ActorCriticPolicy(\n  (features_extractor): FlattenExtractor(\n    (flatten): Flatten(start_dim=1, end_dim=-1)\n  )\n  (pi_features_extractor): FlattenExtractor(\n    (flatten): Flatten(start_dim=1, end_dim=-1)\n  )\n  (vf_features_extractor): FlattenExtractor(\n    (flatten): Flatten(start_dim=1, end_dim=-1)\n  )\n  (mlp_extractor): MlpExtractor(\n    (policy_net): Sequential(\n      (0): Linear(in_features=36, out_features=128, bias=True)\n      (1): ReLU()\n      (2): Linear(in_features=128, out_features=256, bias=True)\n      (3): ReLU()\n      (4): Linear(in_features=256, out_features=128, bias=True)\n      (5): ReLU()\n      (6): Linear(in_features=128, out_features=64, bias=True)\n      (7): ReLU()\n      (8): Linear(in_features=64, out_features=64, bias=True)\n      (9): ReLU()\n    )\n    (value_net): Sequential(\n      (0): Linear(in_features=36, out_features=128, bias=True)\n      (1): ReLU()\n      (2): Linear(in_features=128, out_features=256, bias=True)\n      (3): ReLU()\n      (4): Linear(in_features=256, out_features=128, bias=True)\n      (5): ReLU()\n      (6): Linear(in_features=128, out_features=64, bias=True)\n      (7): ReLU()\n      (8): Linear(in_features=64, out_features=64, bias=True)\n      (9): ReLU()\n    )\n  )\n  (action_net): Linear(in_features=64, out_features=1331, bias=True)\n  (value_net): Linear(in_features=64, out_features=1, bias=True)\n)', '_logger': '<stable_baselines3.common.logger.Logger object at 0x3107955b0>'}
2024-11-27 20:21:21,066 INFO    MainThread:82238 [wandb_setup.py:_flush():79] Current SDK version is 0.18.7
2024-11-27 20:21:21,069 INFO    MainThread:82238 [wandb_setup.py:_flush():79] Configure stats pid to 82238
2024-11-27 20:21:21,069 INFO    MainThread:82238 [wandb_setup.py:_flush():79] Loading settings from /Users/shehvincent/.config/wandb/settings
…
er_kwargs': '{}', '_episode_storage': 'None', 'train_freq': "TrainFreq(frequency=4, unit=<TrainFrequencyUnit.STEP: 'step'>)", 'use_sde_at_warmup': 'False', 'exploration_initial_eps': 1.0, 'exploration_final_eps': 0.05, 'exploration_fraction': 0.1, 'target_update_interval': 500, '_n_calls': 0, 'max_grad_norm': 10, 'exploration_rate': 0.0, 'lr_schedule': '<function get_schedule_fn.<locals>.<lambda> at 0x30f5a49d0>', 'policy': 'DQNPolicy(\n  (q_net): QNetwork(\n    (features_extractor): FlattenExtractor(\n      (flatten): Flatten(start_dim=1, end_dim=-1)\n    )\n    (q_net): Sequential(\n      (0): Linear(in_features=36, out_features=64, bias=True)\n      (1): ReLU()\n      (2): Linear(in_features=64, out_features=64, bias=True)\n      (3): ReLU()\n      (4): Linear(in_features=64, out_features=1331, bias=True)\n    )\n  )\n  (q_net_target): QNetwork(\n    (features_extractor): FlattenExtractor(\n      (flatten): Flatten(start_dim=1, end_dim=-1)\n    )\n    (q_net): Sequential(\n      (0): Linear(in_features=36, out_features=64, bias=True)\n      (1): ReLU()\n      (2): Linear(in_features=64, out_features=64, bias=True)\n      (3): ReLU()\n      (4): Linear(in_features=64, out_features=1331, bias=True)\n    )\n  )\n)', 'q_net': 'QNetwork(\n  (features_extractor): FlattenExtractor(\n    (flatten): Flatten(start_dim=1, end_dim=-1)\n  )\n  (q_net): Sequential(\n    (0): Linear(in_features=36, out_features=64, bias=True)\n    (1): ReLU()\n    (2): Linear(in_features=64, out_features=64, bias=True)\n    (3): ReLU()\n    (4): Linear(in_features=64, out_features=1331, bias=True)\n  )\n)', 'q_net_target': 'QNetwork(\n  (features_extractor): FlattenExtractor(\n    (flatten): Flatten(start_dim=1, end_dim=-1)\n  )\n  (q_net): Sequential(\n    (0): Linear(in_features=36, out_features=64, bias=True)\n    (1): ReLU()\n    (2): Linear(in_features=64, out_features=64, bias=True)\n    (3): ReLU()\n    (4): Linear(in_features=64, out_features=1331, bias=True)\n  )\n)', 'batch_norm_stats': '[]', 'batch_norm_stats_target': '[]', 'exploration_schedule': '<function get_linear_fn.<locals>.func at 0x30f750160>', '_logger': '<stable_baselines3.common.logger.Logger object at 0x30f5ef370>'}
2024-11-27 20:28:05,000 INFO    MainThread:82238 [wandb_setup.py:_flush():79] Current SDK version is 0.18.7
2024-11-27 20:28:05,001 INFO    MainThread:82238 [wandb_setup.py:_flush():79] Configure stats pid to 82238
…
er_kwargs': '{}', '_episode_storage': 'None', 'train_freq': "TrainFreq(frequency=4, unit=<TrainFrequencyUnit.STEP: 'step'>)", 'use_sde_at_warmup': 'False', 'exploration_initial_eps': 1.0, 'exploration_final_eps': 0.05, 'exploration_fraction': 0.1, 'target_update_interval': 500, '_n_calls': 0, 'max_grad_norm': 10, 'exploration_rate': 0.0, 'lr_schedule': '<function get_schedule_fn.<locals>.<lambda> at 0x30fc2a820>', 'policy': 'DQNPolicy(\n  (q_net): QNetwork(\n    (features_extractor): FlattenExtractor(\n      (flatten): Flatten(start_dim=1, end_dim=-1)\n    )\n    (q_net): Sequential(\n      (0): Linear(in_features=60, out_features=128, bias=True)\n      (1): ReLU()\n      (2): Linear(in_features=128, out_features=256, bias=True)\n      (3): ReLU()\n      (4): Linear(in_features=256, out_features=128, bias=True)\n      (5): ReLU()\n      (6): Linear(in_features=128, out_features=64, bias=True)\n      (7): ReLU()\n      (8): Linear(in_features=64, out_features=64, bias=True)\n      (9): ReLU()\n      (10): Linear(in_features=64, out_features=1331, bias=True)\n    )\n  )\n  (q_net_target): QNetwork(\n    (features_extractor): FlattenExtractor(\n      (flatten): Flatten(start_dim=1, end_dim=-1)\n    )\n    (q_net): Sequential(\n      (0): Linear(in_features=60, out_features=128, bias=True)\n      (1): ReLU()\n      (2): Linear(in_features=128, out_features=256, bias=True)\n      (3): ReLU()\n      (4): Linear(in_features=256, out_features=128, bias=True)\n      (5): ReLU()\n      (6): Linear(in_features=128, out_features=64, bias=True)\n      (7): ReLU()\n      (8): Linear(in_features=64, out_features=64, bias=True)\n      (9): ReLU()\n      (10): Linear(in_features=64, out_features=1331, bias=True)\n    )\n  )\n)', 'q_net': 'QNetwork(\n  (features_extractor): FlattenExtractor(\n    (flatten): Flatten(start_dim=1, end_dim=-1)\n  )\n  (q_net): Sequential(\n    (0): Linear(in_features=60, out_features=128, bias=True)\n    (1): ReLU()\n    (2): Linear(in_features=128, out_features=256, bias=True)\n    (3): ReLU()\n    (4): Linear(in_features=256, out_features=128, bias=True)\n    (5): ReLU()\n    (6): Linear(in_features=128, out_features=64, bias=True)\n    (7): ReLU()\n    (8): Linear(in_features=64, out_features=64, bias=True)\n    (9): ReLU()\n    (10): Linear(in_features=64, out_features=1331, bias=True)\n  )\n)', 'q_net_target': 'QNetwork(\n  (features_extractor): FlattenExtractor(\n    (flatten): Flatten(start_dim=1, end_dim=-1)\n  )\n  (q_net): Sequential(\n    (0): Linear(in_features=60, out_features=128, bias=True)\n    (1): ReLU()\n    (2): Linear(in_features=128, out_features=256, bias=True)\n    (3): ReLU()\n    (4): Linear(in_features=256, out_features=128, bias=True)\n    (5): ReLU()\n    (6): Linear(in_features=128, out_features=64, bias=True)\n    (7): ReLU()\n    (8): Linear(in_features=64, out_features=64, bias=True)\n    (9): ReLU()\n    (10): Linear(in_features=64, out_features=1331, bias=True)\n  )\n)', 'batch_norm_stats': '[]', 'batch_norm_stats_target': '[]', 'exploration_schedule': '<function get_linear_fn.<locals>.func at 0x30fbbe670>', '_logger': '<stable_baselines3.common.logger.Logger object at 0x30fb852e0>'}
2024-11-27 20:41:41,014 INFO    MainThread:82238 [wandb_setup.py:_flush():79] Current SDK version is 0.18.7
2024-11-27 20:41:41,015 INFO    MainThread:82238 [wandb_setup.py:_flush():79] Configure stats pid to 82238
…
er_kwargs': '{}', '_episode_storage': 'None', 'train_freq': "TrainFreq(frequency=4, unit=<TrainFrequencyUnit.STEP: 'step'>)", 'use_sde_at_warmup': 'False', 'exploration_initial_eps': 1.0, 'exploration_final_eps': 0.05, 'exploration_fraction': 0.1, 'target_update_interval': 500, '_n_calls': 0, 'max_grad_norm': 10, 'exploration_rate': 0.0, 'lr_schedule': '<function get_schedule_fn.<locals>.<lambda> at 0x30f27d8b0>', 'policy': 'DQNPolicy(\n  (q_net): QNetwork(\n    (features_extractor): FlattenExtractor(\n      (flatten): Flatten(start_dim=1, end_dim=-1)\n    )\n    (q_net): Sequential(\n      (0): Linear(in_features=60, out_features=64, bias=True)\n      (1): ReLU()\n      (2): Linear(in_features=64, out_features=64, bias=True)\n      (3): ReLU()\n      (4): Linear(in_features=64, out_features=1331, bias=True)\n    )\n  )\n  (q_net_target): QNetwork(\n    (features_extractor): FlattenExtractor(\n      (flatten): Flatten(start_dim=1, end_dim=-1)\n    )\n    (q_net): Sequential(\n      (0): Linear(in_features=60, out_features=64, bias=True)\n      (1): ReLU()\n      (2): Linear(in_features=64, out_features=64, bias=True)\n      (3): ReLU()\n      (4): Linear(in_features=64, out_features=1331, bias=True)\n    )\n  )\n)', 'q_net': 'QNetwork(\n  (features_extractor): FlattenExtractor(\n    (flatten): Flatten(start_dim=1, end_dim=-1)\n  )\n  (q_net): Sequential(\n    (0): Linear(in_features=60, out_features=64, bias=True)\n    (1): ReLU()\n    (2): Linear(in_features=64, out_features=64, bias=True)\n    (3): ReLU()\n    (4): Linear(in_features=64, out_features=1331, bias=True)\n  )\n)', 'q_net_target': 'QNetwork(\n  (features_extractor): FlattenExtractor(\n    (flatten): Flatten(start_dim=1, end_dim=-1)\n  )\n  (q_net): Sequential(\n    (0): Linear(in_features=60, out_features=64, bias=True)\n    (1): ReLU()\n    (2): Linear(in_features=64, out_features=64, bias=True)\n    (3): ReLU()\n    (4): Linear(in_features=64, out_features=1331, bias=True)\n  )\n)', 'batch_norm_stats': '[]', 'batch_norm_stats_target': '[]', 'exploration_schedule': '<function get_linear_fn.<locals>.func at 0x30fc2ab80>', '_logger': '<stable_baselines3.common.logger.Logger object at 0x30f297280>'}
2024-11-27 20:42:43,707 INFO    MainThread:82238 [wandb_setup.py:_flush():79] Current SDK version is 0.18.7
2024-11-27 20:42:43,711 INFO    MainThread:82238 [wandb_setup.py:_flush():79] Configure stats pid to 82238
…
er_kwargs': '{}', '_episode_storage': 'None', 'train_freq': "TrainFreq(frequency=4, unit=<TrainFrequencyUnit.STEP: 'step'>)", 'use_sde_at_warmup': 'False', 'exploration_initial_eps': 1.0, 'exploration_final_eps': 0.05, 'exploration_fraction': 0.1, 'target_update_interval': 500, '_n_calls': 0, 'max_grad_norm': 10, 'exploration_rate': 0.0, 'lr_schedule': '<function get_schedule_fn.<locals>.<lambda> at 0x30f219940>', 'policy': 'DQNPolicy(\n  (q_net): QNetwork(\n    (features_extractor): FlattenExtractor(\n      (flatten): Flatten(start_dim=1, end_dim=-1)\n    )\n    (q_net): Sequential(\n      (0): Linear(in_features=20, out_features=64, bias=True)\n      (1): ReLU()\n      (2): Linear(in_features=64, out_features=64, bias=True)\n      (3): ReLU()\n      (4): Linear(in_features=64, out_features=11, bias=True)\n    )\n  )\n  (q_net_target): QNetwork(\n    (features_extractor): FlattenExtractor(\n      (flatten): Flatten(start_dim=1, end_dim=-1)\n    )\n    (q_net): Sequential(\n      (0): Linear(in_features=20, out_features=64, bias=True)\n      (1): ReLU()\n      (2): Linear(in_features=64, out_features=64, bias=True)\n      (3): ReLU()\n      (4): Linear(in_features=64, out_features=11, bias=True)\n    )\n  )\n)', 'q_net': 'QNetwork(\n  (features_extractor): FlattenExtractor(\n    (flatten): Flatten(start_dim=1, end_dim=-1)\n  )\n  (q_net): Sequential(\n    (0): Linear(in_features=20, out_features=64, bias=True)\n    (1): ReLU()\n    (2): Linear(in_features=64, out_features=64, bias=True)\n    (3): ReLU()\n    (4): Linear(in_features=64, out_features=11, bias=True)\n  )\n)', 'q_net_target': 'QNetwork(\n  (features_extractor): FlattenExtractor(\n    (flatten): Flatten(start_dim=1, end_dim=-1)\n  )\n  (q_net): Sequential(\n    (0): Linear(in_features=20, out_features=64, bias=True)\n    (1): ReLU()\n    (2): Linear(in_features=64, out_features=64, bias=True)\n    (3): ReLU()\n    (4): Linear(in_features=64, out_features=11, bias=True)\n  )\n)', 'batch_norm_stats': '[]', 'batch_norm_stats_target': '[]', 'exploration_schedule': '<function get_linear_fn.<locals>.func at 0x30f298430>', '_logger': '<stable_baselines3.common.logger.Logger object at 0x30f2b6250>'}
2024-11-27 20:48:40,331 INFO    MainThread:82238 [wandb_run.py:_tensorboard_callback():1544] tensorboard callback: ./dqn_logs/DQN_265, True
…
'True', 'target_kl': 'None', 'lr_schedule': '<function get_schedule_fn.<locals>.<lambda> at 0x3299444c0>', 'rollout_buffer': '<stable_baselines3.common.buffers.RolloutBuffer object at 0x329761e20>', 'policy': 'ActorCriticPolicy(\n  (features_extractor): FlattenExtractor(\n    (flatten): Flatten(start_dim=1, end_dim=-1)\n  )\n  (pi_features_extractor): FlattenExtractor(\n    (flatten): Flatten(start_dim=1, end_dim=-1)\n  )\n  (vf_features_extractor): FlattenExtractor(\n    (flatten): Flatten(start_dim=1, end_dim=-1)\n  )\n  (mlp_extractor): MlpExtractor(\n    (policy_net): Sequential(\n      (0): Linear(in_features=20, out_features=64, bias=True)\n      (1): ReLU()\n      (2): Linear(in_features=64, out_features=64, bias=True)\n      (3): ReLU()\n      (4): Linear(in_features=64, out_features=64, bias=True)\n      (5): ReLU()\n    )\n    (value_net): Sequential(\n      (0): Linear(in_features=20, out_features=64, bias=True)\n      (1): ReLU()\n      (2): Linear(in_features=64, out_features=64, bias=True)\n      (3): ReLU()\n      (4): Linear(in_features=64, out_features=64, bias=True)\n      (5): ReLU()\n    )\n  )\n  (action_net): Linear(in_features=64, out_features=11, bias=True)\n  (value_net): Linear(in_features=64, out_features=1, bias=True)\n)', '_logger': '<stable_baselines3.common.logger.Logger object at 0x32996ee50>'}
2024-11-28 14:17:00,425 INFO    MainThread:82238 [wandb_setup.py:_flush():79] Current SDK version is 0.18.7
2024-11-28 14:17:00,427 INFO    MainThread:82238 [wandb_setup.py:_flush():79] Configure stats pid to 82238
2024-11-28 14:17:00,427 INFO    MainThread:82238 [wandb_setup.py:_flush():79] Loading settings from /Users/shehvincent/.config/wandb/settings
…
'True', 'target_kl': 'None', 'lr_schedule': '<function get_schedule_fn.<locals>.<lambda> at 0x30d3ec8b0>', 'rollout_buffer': '<stable_baselines3.common.buffers.RolloutBuffer object at 0x310c0e730>', 'policy': 'ActorCriticPolicy(\n  (features_extractor): FlattenExtractor(\n    (flatten): Flatten(start_dim=1, end_dim=-1)\n  )\n  (pi_features_extractor): FlattenExtractor(\n    (flatten): Flatten(start_dim=1, end_dim=-1)\n  )\n  (vf_features_extractor): FlattenExtractor(\n    (flatten): Flatten(start_dim=1, end_dim=-1)\n  )\n  (mlp_extractor): MlpExtractor(\n    (policy_net): Sequential(\n      (0): Linear(in_features=60, out_features=64, bias=True)\n      (1): ReLU()\n      (2): Linear(in_features=64, out_features=64, bias=True)\n      (3): ReLU()\n      (4): Linear(in_features=64, out_features=64, bias=True)\n      (5): ReLU()\n    )\n    (value_net): Sequential(\n      (0): Linear(in_features=60, out_features=64, bias=True)\n      (1): ReLU()\n      (2): Linear(in_features=64, out_features=64, bias=True)\n      (3): ReLU()\n      (4): Linear(in_features=64, out_features=64, bias=True)\n      (5): ReLU()\n    )\n  )\n  (action_net): Linear(in_features=64, out_features=1331, bias=True)\n  (value_net): Linear(in_features=64, out_features=1, bias=True)\n)', '_logger': '<stable_baselines3.common.logger.Logger object at 0x30f154fd0>'}
2024-11-28 14:23:56,344 INFO    MainThread:82238 [wandb_setup.py:_flush():79] Current SDK version is 0.18.7
2024-11-28 14:23:56,345 INFO    MainThread:82238 [wandb_setup.py:_flush():79] Configure stats pid to 82238
2024-11-28 14:23:56,345 INFO    MainThread:82238 [wandb_setup.py:_flush():79] Loading settings from /Users/shehvincent/.config/wandb/settings
…
'True', 'target_kl': 'None', 'lr_schedule': '<function get_schedule_fn.<locals>.<lambda> at 0x30f9edb80>', 'rollout_buffer': '<stable_baselines3.common.buffers.RolloutBuffer object at 0x30d7b85b0>', 'policy': 'ActorCriticPolicy(\n  (features_extractor): FlattenExtractor(\n    (flatten): Flatten(start_dim=1, end_dim=-1)\n  )\n  (pi_features_extractor): FlattenExtractor(\n    (flatten): Flatten(start_dim=1, end_dim=-1)\n  )\n  (vf_features_extractor): FlattenExtractor(\n    (flatten): Flatten(start_dim=1, end_dim=-1)\n  )\n  (mlp_extractor): MlpExtractor(\n    (policy_net): Sequential(\n      (0): Linear(in_features=60, out_features=64, bias=True)\n      (1): ReLU()\n      (2): Linear(in_features=64, out_features=64, bias=True)\n      (3): ReLU()\n      (4): Linear(in_features=64, out_features=64, bias=True)\n      (5): ReLU()\n    )\n    (value_net): Sequential(\n      (0): Linear(in_features=60, out_features=64, bias=True)\n      (1): ReLU()\n      (2): Linear(in_features=64, out_features=64, bias=True)\n      (3): ReLU()\n      (4): Linear(in_features=64, out_features=64, bias=True)\n      (5): ReLU()\n    )\n  )\n  (action_net): Linear(in_features=64, out_features=1331, bias=True)\n  (value_net): Linear(in_features=64, out_features=1, bias=True)\n)', '_logger': '<stable_baselines3.common.logger.Logger object at 0x30fa28f40>'}
2024-11-28 14:26:29,849 INFO    MainThread:82238 [wandb_run.py:_tensorboard_callback():1544] tensorboard callback: ./dqn_logs/DQN_277, True
2024-11-28 14:26:31,542 INFO    MainThread:82238 [wandb_setup.py:_flush():79] Current SDK version is 0.18.7
2024-11-28 14:26:31,542 INFO    MainThread:82238 [wandb_setup.py:_flush():79] Configure stats pid to 82238
…
'True', 'target_kl': 'None', 'lr_schedule': '<function get_schedule_fn.<locals>.<lambda> at 0x3104ecb80>', 'rollout_buffer': '<stable_baselines3.common.buffers.RolloutBuffer object at 0x3107c8df0>', 'policy': 'ActorCriticPolicy(\n  (features_extractor): FlattenExtractor(\n    (flatten): Flatten(start_dim=1, end_dim=-1)\n  )\n  (pi_features_extractor): FlattenExtractor(\n    (flatten): Flatten(start_dim=1, end_dim=-1)\n  )\n  (vf_features_extractor): FlattenExtractor(\n    (flatten): Flatten(start_dim=1, end_dim=-1)\n  )\n  (mlp_extractor): MlpExtractor(\n    (policy_net): Sequential(\n      (0): Linear(in_features=60, out_features=128, bias=True)\n      (1): ReLU()\n      (2): Linear(in_features=128, out_features=256, bias=True)\n      (3): ReLU()\n      (4): Linear(in_features=256, out_features=128, bias=True)\n      (5): ReLU()\n      (6): Linear(in_features=128, out_features=64, bias=True)\n      (7): ReLU()\n      (8): Linear(in_features=64, out_features=64, bias=True)\n      (9): ReLU()\n    )\n    (value_net): Sequential(\n      (0): Linear(in_features=60, out_features=128, bias=True)\n      (1): ReLU()\n      (2): Linear(in_features=128, out_features=256, bias=True)\n      (3): ReLU()\n      (4): Linear(in_features=256, out_features=128, bias=True)\n      (5): ReLU()\n      (6): Linear(in_features=128, out_features=64, bias=True)\n      (7): ReLU()\n      (8): Linear(in_features=64, out_features=64, bias=True)\n      (9): ReLU()\n    )\n  )\n  (action_net): Linear(in_features=64, out_features=1331, bias=True)\n  (value_net): Linear(in_features=64, out_features=1, bias=True)\n)', '_logger': '<stable_baselines3.common.logger.Logger object at 0x30d46bd00>'}
2024-11-28 14:37:39,315 INFO    MainThread:82238 [wandb_setup.py:_flush():79] Current SDK version is 0.18.7
2024-11-28 14:37:39,319 INFO    MainThread:82238 [wandb_setup.py:_flush():79] Configure stats pid to 82238
2024-11-28 14:37:39,319 INFO    MainThread:82238 [wandb_setup.py:_flush():79] Loading settings from /Users/shehvincent/.config/wandb/settings
…
, 0., 0., 0., 0., 0., 0., 0., 0., 0., 0., 0., 0., 0., 0., 0., 0., 0., 0., 0., 0.,\n          0., 0., 0.]]])))', 'lr_schedule': '<function get_schedule_fn.<locals>.<lambda> at 0x31122edc0>', 'policy': 'RecurrentActorCriticPolicy(\n  (features_extractor): FlattenExtractor(\n    (flatten): Flatten(start_dim=1, end_dim=-1)\n  )\n  (pi_features_extractor): FlattenExtractor(\n    (flatten): Flatten(start_dim=1, end_dim=-1)\n  )\n  (vf_features_extractor): FlattenExtractor(\n    (flatten): Flatten(start_dim=1, end_dim=-1)\n  )\n  (mlp_extractor): MlpExtractor(\n    (policy_net): Sequential(\n      (0): Linear(in_features=256, out_features=128, bias=True)\n      (1): ReLU()\n      (2): Linear(in_features=128, out_features=256, bias=True)\n      (3): ReLU()\n      (4): Linear(in_features=256, out_features=128, bias=True)\n      (5): ReLU()\n      (6): Linear(in_features=128, out_features=64, bias=True)\n      (7): ReLU()\n      (8): Linear(in_features=64, out_features=64, bias=True)\n      (9): ReLU()\n    )\n    (value_net): Sequential(\n      (0): Linear(in_features=256, out_features=128, bias=True)\n      (1): ReLU()\n      (2): Linear(in_features=128, out_features=256, bias=True)\n      (3): ReLU()\n      (4): Linear(in_features=256, out_features=128, bias=True)\n      (5): ReLU()\n      (6): Linear(in_features=128, out_features=64, bias=True)\n      (7): ReLU()\n      (8): Linear(in_features=64, out_features=64, bias=True)\n      (9): ReLU()\n    )\n  )\n  (action_net): Linear(in_features=64, out_features=1331, bias=True)\n  (value_net): Linear(in_features=64, out_features=1, bias=True)\n  (lstm_actor): LSTM(60, 256)\n  (lstm_critic): LSTM(60, 256)\n)', 'rollout_buffer': '<sb3_contrib.common.recurrent.buffers.RecurrentRolloutBuffer object at 0x3111f5580>', '_logger': '<stable_baselines3.common.logger.Logger object at 0x310c83eb0>'}
2024-11-28 15:13:03,677 INFO    MainThread:82238 [wandb_setup.py:_flush():79] Current SDK version is 0.18.7
…
, 0., 0., 0., 0., 0., 0., 0., 0., 0., 0., 0., 0., 0., 0., 0., 0., 0., 0., 0., 0.,\n          0., 0., 0.]]])))', 'lr_schedule': '<function get_schedule_fn.<locals>.<lambda> at 0x3296b8c10>', 'policy': 'RecurrentActorCriticPolicy(\n  (features_extractor): FlattenExtractor(\n    (flatten): Flatten(start_dim=1, end_dim=-1)\n  )\n  (pi_features_extractor): FlattenExtractor(\n    (flatten): Flatten(start_dim=1, end_dim=-1)\n  )\n  (vf_features_extractor): FlattenExtractor(\n    (flatten): Flatten(start_dim=1, end_dim=-1)\n  )\n  (mlp_extractor): MlpExtractor(\n    (policy_net): Sequential(\n      (0): Linear(in_features=256, out_features=64, bias=True)\n      (1): Tanh()\n      (2): Linear(in_features=64, out_features=64, bias=True)\n      (3): Tanh()\n    )\n    (value_net): Sequential(\n      (0): Linear(in_features=256, out_features=64, bias=True)\n      (1): Tanh()\n      (2): Linear(in_features=64, out_features=64, bias=True)\n      (3): Tanh()\n    )\n  )\n  (action_net): Linear(in_features=64, out_features=1331, bias=True)\n  (value_net): Linear(in_features=64, out_features=1, bias=True)\n  (lstm_actor): LSTM(60, 256)\n  (lstm_critic): LSTM(60, 256)\n)', 'rollout_buffer': '<sb3_contrib.common.recurrent.buffers.RecurrentRolloutBuffer object at 0x3296a3130>', '_logger': '<stable_baselines3.common.logger.Logger object at 0x329699a30>'}
2024-11-28 19:13:32,958 INFO    MainThread:82238 [wandb_setup.py:_flush():79] Current SDK version is 0.18.7
…
