…
er_kwargs': '{}', '_episode_storage': 'None', 'train_freq': "TrainFreq(frequency=4, unit=<TrainFrequencyUnit.STEP: 'step'>)", 'use_sde_at_warmup': 'False', 'exploration_initial_eps': 1.0, 'exploration_final_eps': 0.05, 'exploration_fraction': 0.1, 'target_update_interval': 500, '_n_calls': 0, 'max_grad_norm': 10, 'exploration_rate': 0.0, 'lr_schedule': '<function get_schedule_fn.<locals>.<lambda> at 0x30fc2a820>', 'policy': 'DQNPolicy(\n  (q_net): QNetwork(\n    (features_extractor): FlattenExtractor(\n      (flatten): Flatten(start_dim=1, end_dim=-1)\n    )\n    (q_net): Sequential(\n      (0): Linear(in_features=60, out_features=128, bias=True)\n      (1): ReLU()\n      (2): Linear(in_features=128, out_features=256, bias=True)\n      (3): ReLU()\n      (4): Linear(in_features=256, out_features=128, bias=True)\n      (5): ReLU()\n      (6): Linear(in_features=128, out_features=64, bias=True)\n      (7): ReLU()\n      (8): Linear(in_features=64, out_features=64, bias=True)\n      (9): ReLU()\n      (10): Linear(in_features=64, out_features=1331, bias=True)\n    )\n  )\n  (q_net_target): QNetwork(\n    (features_extractor): FlattenExtractor(\n      (flatten): Flatten(start_dim=1, end_dim=-1)\n    )\n    (q_net): Sequential(\n      (0): Linear(in_features=60, out_features=128, bias=True)\n      (1): ReLU()\n      (2): Linear(in_features=128, out_features=256, bias=True)\n      (3): ReLU()\n      (4): Linear(in_features=256, out_features=128, bias=True)\n      (5): ReLU()\n      (6): Linear(in_features=128, out_features=64, bias=True)\n      (7): ReLU()\n      (8): Linear(in_features=64, out_features=64, bias=True)\n      (9): ReLU()\n      (10): Linear(in_features=64, out_features=1331, bias=True)\n    )\n  )\n)', 'q_net': 'QNetwork(\n  (features_extractor): FlattenExtractor(\n    (flatten): Flatten(start_dim=1, end_dim=-1)\n  )\n  (q_net): Sequential(\n    (0): Linear(in_features=60, out_features=128, bias=True)\n    (1): ReLU()\n    (2): Linear(in_features=128, out_features=256, bias=True)\n    (3): ReLU()\n    (4): Linear(in_features=256, out_features=128, bias=True)\n    (5): ReLU()\n    (6): Linear(in_features=128, out_features=64, bias=True)\n    (7): ReLU()\n    (8): Linear(in_features=64, out_features=64, bias=True)\n    (9): ReLU()\n    (10): Linear(in_features=64, out_features=1331, bias=True)\n  )\n)', 'q_net_target': 'QNetwork(\n  (features_extractor): FlattenExtractor(\n    (flatten): Flatten(start_dim=1, end_dim=-1)\n  )\n  (q_net): Sequential(\n    (0): Linear(in_features=60, out_features=128, bias=True)\n    (1): ReLU()\n    (2): Linear(in_features=128, out_features=256, bias=True)\n    (3): ReLU()\n    (4): Linear(in_features=256, out_features=128, bias=True)\n    (5): ReLU()\n    (6): Linear(in_features=128, out_features=64, bias=True)\n    (7): ReLU()\n    (8): Linear(in_features=64, out_features=64, bias=True)\n    (9): ReLU()\n    (10): Linear(in_features=64, out_features=1331, bias=True)\n  )\n)', 'batch_norm_stats': '[]', 'batch_norm_stats_target': '[]', 'exploration_schedule': '<function get_linear_fn.<locals>.func at 0x30fbbe670>', '_logger': '<stable_baselines3.common.logger.Logger object at 0x30fb852e0>'}
2024-11-27 20:41:41,014 INFO    MainThread:82238 [wandb_setup.py:_flush():79] Current SDK version is 0.18.7
2024-11-27 20:41:41,015 INFO    MainThread:82238 [wandb_setup.py:_flush():79] Configure stats pid to 82238
…
