…
, 0., 0., 0., 0., 0., 0., 0., 0., 0., 0., 0., 0., 0., 0., 0., 0., 0., 0., 0., 0.,\n          0., 0., 0.]]])))', 'lr_schedule': '<function get_schedule_fn.<locals>.<lambda> at 0x31122edc0>', 'policy': 'RecurrentActorCriticPolicy(\n  (features_extractor): FlattenExtractor(\n    (flatten): Flatten(start_dim=1, end_dim=-1)\n  )\n  (pi_features_extractor): FlattenExtractor(\n    (flatten): Flatten(start_dim=1, end_dim=-1)\n  )\n  (vf_features_extractor): FlattenExtractor(\n    (flatten): Flatten(start_dim=1, end_dim=-1)\n  )\n  (mlp_extractor): MlpExtractor(\n    (policy_net): Sequential(\n      (0): Linear(in_features=256, out_features=128, bias=True)\n      (1): ReLU()\n      (2): Linear(in_features=128, out_features=256, bias=True)\n      (3): ReLU()\n      (4): Linear(in_features=256, out_features=128, bias=True)\n      (5): ReLU()\n      (6): Linear(in_features=128, out_features=64, bias=True)\n      (7): ReLU()\n      (8): Linear(in_features=64, out_features=64, bias=True)\n      (9): ReLU()\n    )\n    (value_net): Sequential(\n      (0): Linear(in_features=256, out_features=128, bias=True)\n      (1): ReLU()\n      (2): Linear(in_features=128, out_features=256, bias=True)\n      (3): ReLU()\n      (4): Linear(in_features=256, out_features=128, bias=True)\n      (5): ReLU()\n      (6): Linear(in_features=128, out_features=64, bias=True)\n      (7): ReLU()\n      (8): Linear(in_features=64, out_features=64, bias=True)\n      (9): ReLU()\n    )\n  )\n  (action_net): Linear(in_features=64, out_features=1331, bias=True)\n  (value_net): Linear(in_features=64, out_features=1, bias=True)\n  (lstm_actor): LSTM(60, 256)\n  (lstm_critic): LSTM(60, 256)\n)', 'rollout_buffer': '<sb3_contrib.common.recurrent.buffers.RecurrentRolloutBuffer object at 0x3111f5580>', '_logger': '<stable_baselines3.common.logger.Logger object at 0x310c83eb0>'}
2024-11-28 15:13:03,677 INFO    MainThread:82238 [wandb_setup.py:_flush():79] Current SDK version is 0.18.7
…
